iris.tflite (tflite, 20204 bytes, 5 tensors)

dense/bias f4 [64]
0	0xba9d94c5	-0.0012022486
1	0x3d2214b5	0.03957053
2	0xbcda2608	-0.026629463
3	0x00000000	0.0
4	0xbcc9ea53	-0.024647867
5	0xbca3957f	-0.019968746
6	0x00000000	0.0
7	0x3d45a54d	0.048253346
8	0x00000000	0.0
9	0x00000000	0.0
10	0x00000000	0.0
11	0x00000000	0.0
12	0x00000000	0.0
13	0x3b7fdcaa	0.0039041438
14	0x00000000	0.0
15	0xbd911eca	-0.07085951
16	0x3d1a3b8b	0.03765444
17	0x3c74d755	0.014943917
18	0x3d1d8cfe	0.03846454
19	0x00000000	0.0
20	0xbd23a60c	-0.039953277
21	0x37bea9d4	2.2728847e-05
22	0x00000000	0.0
23	0x3cd27b58	0.02569358
24	0xba114888	-0.0005542119
25	0x3bb978c2	0.0056601474
26	0xbd5f0374	-0.054446653
27	0x00000000	0.0
28	0xbd4936a0	-0.04912436
29	0x00000000	0.0
30	0xbd7ac9b0	-0.0612275
31	0x3c877db4	0.016539432
32	0x00000000	0.0
33	0x3db9aef1	0.090665706
34	0xbb8aad82	-0.0042321095
35	0x3d5bc3bd	0.053653467
36	0x00000000	0.0
37	0x3c0c2def	0.008555873
38	0xbc5445b4	-0.012956072
39	0x00000000	0.0
40	0xbcb63935	-0.022244075
41	0xbbece532	-0.0072294706
42	0x3cd7c2d7	0.026338024
43	0x3c1b8bbf	0.009493767
44	0x00000000	0.0
45	0x00000000	0.0
46	0xbc705ecd	-0.01467104
47	0x3d4f5ee0	0.05062759
48	0x3c928421	0.01788527
49	0xbd2b8d3c	-0.04188274
50	0x00000000	0.0
51	0x3cecf8fa	0.028927315
52	0x3d801bc9	0.062552996
53	0x3c235894	0.009969849
54	0xbd407534	-0.046986774
55	0x00000000	0.0
56	0xbbfd5c62	-0.00773196
57	0x3c758b6f	0.014986857
58	0x3cd87e85	0.026427517
59	0xbd73f06d	-0.05955546
60	0x3d634a5c	0.055490837
61	0x3d30286d	0.043007303
62	0x3d63c60b	0.05560879
63	0x3d27f651	0.04100639

sequential/dense/MatMul f4 [64, 4]
0	0xbe3cf197	-0.18451534
1	0x3dcbef6c	0.099577755
2	0x3e4f706c	0.2025773
3	0xbe437e76	-0.1909121
4	0x3e7789be	0.24173638
5	0x3e587cf0	0.2114141
6	0xbe7538f6	-0.2394751
7	0xbe56c42b	-0.2097327
8	0x3e252321	0.16126682
9	0x3e4491c8	0.19196236
10	0x3e8e0ecf	0.27745673
11	0x3e0423f9	0.12904347
12	0xbe558e8e	-0.20855162
13	0x3d072f00	0.033003807
14	0x3d87b584	0.06626418
15	0x3e25919e	0.1616883
16	0xbe12486f	-0.14285444
17	0xbd454bcb	-0.048167985
18	0x3e8c6193	0.27418193
19	0xbdc6a486	-0.09699349
20	0x3e48237b	0.19544785
21	0x3dd44af1	0.103658564
22	0xbcea3ff5	-0.02859495
23	0x3e84089c	0.25787818
24	0xbd5e423c	-0.054262385
25	0xbe137275	-0.1439913
26	0xbe5bc2aa	-0.21460977
27	0x3bb1c800	0.005425453
28	0x3e858e5c	0.26085174
29	0x3e01a987	0.12662326
30	0xbe280c51	-0.16410948
31	0xbca0d898	-0.01963453
32	0x3d8c473c	0.068495244
33	0xbdcb8904	-0.09938243
34	0xbde86986	-0.11348252
35	0x3dababf4	0.08382407
36	0xbe0eb365	-0.13935621
37	0xbe8af659	-0.27141073
38	0xbd516a8c	-0.051127
39	0x3e727b6c	0.23679894
40	0xbe0a0738	-0.13479316
41	0x3d2aeef0	0.041731775
42	0x3dfa4b28	0.12221366
43	0xbe030446	-0.12794599
44	0x3d3baad0	0.045817196
45	0xbe5e7e12	-0.2172778
46	0xbd4eb1e8	-0.050462633
47	0xbe38784e	-0.18014643
48	0xbe729f24	-0.2369352
49	0xbe2b696c	-0.16739434
50	0xbe87de53	-0.26536807
51	0x3e8bd978	0.27314353
52	0x3e124e54	0.14287692
53	0x3e39fd65	0.18163069
54	0xbb955657	-0.0045574117
55	0xbde8e9a5	-0.11372689
56	0xbe486e04	-0.19573218
57	0x3c11c480	0.008896947
58	0xbe683e74	-0.22680074
59	0x3e4201c8	0.18945992
60	0xbd11c7da	-0.035590984
61	0xbe6cf452	-0.23140076
62	0x3ed0612b	0.40699133
63	0x3ec2222b	0.37916693
64	0x3dd791ae	0.10525833
65	0x3e2a6f97	0.1664413
66	0xbddea2db	-0.10870906
67	0xbcfdcfce	-0.030982878
68	0x3e890ac4	0.26766026
69	0x3e5eac0a	0.21745315
70	0x3e3f0f55	0.18658192
71	0xbd36cadd	-0.04462706
72	0x3e249c86	0.16075334
73	0x3e8c069a	0.27348787
74	0xbe5ca868	-0.21548617
75	0xbe54232b	-0.2071654
76	0xbe059748	-0.1304599
77	0xbe723fbc	-0.23657125
78	0x3dfc0ca8	0.123071015
79	0x3e36d776	0.1785563
80	0xbe03d922	-0.12875798
81	0x3deb409c	0.11486933
82	0x3e1f3545	0.15547664
83	0x3d8bebfb	0.06832119
84	0xbe0a3906	-0.13498315
85	0x3d2111cf	0.039323624
86	0x3d0c09ba	0.034188963
87	0x3e5b9164	0.21442181
88	0xbe02d250	-0.1277554
89	0xbd29cfe8	-0.04145804
90	0x3dd235d8	0.10264176
91	0xbdf3995e	-0.11894487
92	0x3e3f0fdc	0.18658394
93	0x3da31000	0.07962036
94	0x3d71ec11	0.05906302
95	0xbe083000	-0.1329956
96	0x3e27645d	0.1634688
97	0xbe99dd13	-0.3005148
98	0x3ba99ed4	0.0051764045
99	0xbe0c65d0	-0.13710713
100	0x3e780ad9	0.24222888
101	0x3e896d68	0.26841283
102	0xbdc988b5	-0.09840528
103	0xbdd19fa8	-0.1023553
104	0x3d48c44f	0.04901534
105	0xbdedf86e	-0.1161965
106	0x3e8ffa07	0.28120443
107	0x3e862a69	0.2620423
108	0x3dcd3d0c	0.100214094
109	0xbde97b40	-0.11400461
110	0xbe81776e	-0.2528643
111	0xbe3f7608	-0.18697369
112	0xbe1ddefd	-0.15417095
113	0x3d8cbfd2	0.06872524
114	0x3e20919f	0.1568055
115	0x3de34391	0.11096872
116	0x3d1c7c20	0.038204312
117	0xbe94db5b	-0.29073605
118	0xbe55fc42	-0.2089701
119	0xbc6e0b40	-0.014529049
120	0xbe8cc5db	-0.27494702
121	0xbd663951	-0.056207005
122	0x3ed2dea5	0.4118549
123	0x3e14450a	0.14479461
124	0x3e92f875	0.28705183
125	0x3cce39af	0.02517399
126	0xbe53f5b4	-0.20699197
127	0x3e5555d3	0.2083352
128	0xbe1c4a02	-0.15262607
129	0xbe044ac3	-0.12919144
130	0x3d8f5004	0.06997684
131	0xbe55d4b6	-0.20881924
132	0x3e9affe6	0.3027336
133	0x3efb4af4	0.49080622
134	0xbed683e7	-0.41897509
135	0xbee6e1f3	-0.4509426
136	0x3e8ba40d	0.27273598
137	0x3df76488	0.12079722
138	0xbdde0579	-0.108408876
139	0x3e819190	0.25306368
140	0x3e95179f	0.29119584
141	0xbe1c6f4b	-0.1527683
142	0xbdfcc456	-0.123421356
143	0x3bdcfc90	0.006743975
144	0xbe5858f2	-0.2112768
145	0xbe46ecbc	-0.19426244
146	0x3e71890c	0.23587435
147	0xbe7a1926	-0.24423656
148	0x3e8f539b	0.27993473
149	0xbd479f22	-0.048735745
150	0xbcdc62d1	-0.026902588
151	0xbca5533f	-0.020181296
152	0x3e88d21e	0.26722807
153	0xbd17fe4d	-0.037107754
154	0xbe7502a7	-0.23926793
155	0xbd816c92	-0.06319536
156	0xbe8932f8	-0.267967
157	0xbe94ea20	-0.29084873
158	0xbb811800	-0.0039396286
159	0x3dd128b8	0.102128446
160	0x3bd0f05d	0.00637631
161	0x3de19911	0.11015523
162	0x3e5a4210	0.21314263
163	0xbc942e70	-0.01808855
164	0xbd9a7d17	-0.0754339
165	0x3dff0235	0.12451593
166	0xbd54e814	-0.05197914
167	0xbc718bf6	-0.014742842
168	0x3dbc9245	0.09207586
169	0x3e928f89	0.28625134
170	0xbe9d13ce	-0.30679172
171	0xbdcce96d	-0.1000546
172	0x3e94984e	0.2902245
173	0xbdd87d77	-0.105708055
174	0xbe0a97ee	-0.13534519
175	0xbe926a43	-0.28596696
176	0x3ce02240	0.027360082
177	0xbe75f064	-0.24017483
178	0xbdda0f28	-0.10647422
179	0xbd8a5896	-0.06755178
180	0xbda4dc6c	-0.08049855
181	0xbdfba698	-0.122876346
182	0xbe538ea2	-0.20659879
183	0xbe91ce6b	-0.28477797
184	0xbdaf1eb4	-0.08550778
185	0x3e51668c	0.20449275
186	0x3e033444	0.12812907
187	0x3d8acb07	0.06777006
188	0x3eabc5d4	0.33549368
189	0x3e98a873	0.29816017
190	0xbecf4e52	-0.4048944
191	0xbd3caf4e	-0.04606562
192	0x3e3adca7	0.18248235
193	0x3e4a5ca8	0.19761908
194	0xbe5ede67	-0.21764527
195	0x3cfa0eef	0.030524699
196	0xbe7041fc	-0.23462671
197	0x3df29c86	0.11846261
198	0x3eca18c2	0.39472014
199	0x3ec647fd	0.38726798
200	0xbe890bdd	-0.26766863
201	0xbdf71710	-0.12064946
202	0xbe6f0a9c	-0.23343891
203	0xbd0b9bb0	-0.034084022
204	0x3d99e8db	0.07515117
205	0x3e977df6	0.29588288
206	0xbe87e9d2	-0.26545578
207	0xbe3b3fe4	-0.18286091
208	0x3d994c7b	0.074852906
209	0x3e98e139	0.2985933
210	0xbe7a67b4	-0.24453622
211	0x3da3ea47	0.08003669
212	0x3e59926f	0.21247266
213	0x3deccece	0.11562882
214	0xbecc6b68	-0.39925694
215	0x3d7e9242	0.0621512
216	0x3e2a579b	0.16634981
217	0xbc5e6735	-0.013574411
218	0x3e98be54	0.2983271
219	0x3e8c8252	0.27443177
220	0xbe453eda	-0.19262257
221	0xbe73d8b1	-0.2381313
222	0x3dad7200	0.084690094
223	0xbe290d96	-0.16509089
224	0x3e358ec1	0.17730238
225	0xbe837061	-0.25671676
226	0x3e999f3b	0.30004296
227	0x3e881aaf	0.26582858
228	0x3cc6d634	0.024272062
229	0x3e93ad0f	0.2884297
230	0xbdb49623	-0.08817699
231	0xbe58e066	-0.21179351
232	0x3c94a624	0.018145628
233	0x3e2f696c	0.17130059
234	0xbe45ae94	-0.19304878
235	0x3e49c244	0.19703013
236	0xbe550562	-0.20802835
237	0x3d14dc1e	0.036342733
238	0x3f042a4d	0.51627046
239	0x3ee0fd81	0.43943408
240	0x3d8d1615	0.068889774
241	0x3e85577d	0.2604331
242	0x3cb73a7e	0.022366758
243	0xbec9f841	-0.39447215
244	0x3e6bffcc	0.23046798
245	0x3e886c53	0.26645145
246	0x3e2e8e08	0.17046368
247	0xbea1e749	-0.3162177
248	0x3dd3bc67	0.10338669
249	0x3e84f270	0.25966215
250	0xbdd2da19	-0.10295505
251	0xbec3866a	-0.38188487
252	0x3e998984	0.2998773
253	0xbd24d20e	-0.040239386
254	0xbe9971e8	-0.29969716
255	0xbc81274c	-0.015765809

sequential/dense_1/MatMul f4 [64, 64]
0	0xbe526b12	-0.20548657
1	0x3e075658	0.13216531
2	0xbd61cfaf	-0.055129703
3	0x3e3f6d7b	0.18694107
4	0xbe03552f	-0.12825464
5	0xb8c32145	-9.3045215e-05
6	0xbc326490	-0.010888234
7	0xbe430fce	-0.19048998
8	0xbd31d4d8	-0.043415874
9	0x3d9dc1ca	0.07702978
10	0xbdd89bb7	-0.10576575
11	0x3d9b924a	0.07596262
12	0xbdfa4a0d	-0.12221155
13	0xbe5ad964	-0.2137199
14	0x3e4f351f	0.20235108
15	0x3e319d02	0.1734505
16	0x3e1ceba6	0.15324268
17	0xbcb3079b	-0.021854213
18	0x3dc04311	0.09387792
19	0x3d10207c	0.03518723
20	0x3dda5838	0.10661358
21	0xbd39dbea	-0.045375742
22	0x3e38270d	0.17983647
23	0xbe4a89dc	-0.19779152
24	0xbe18dff6	-0.14929184
25	0x3e3da6e6	0.18520698
26	0x3c051983	0.008123758
27	0xbd01f790	-0.031730235
28	0xbe20c692	-0.15700749
29	0xbe077892	-0.13229588
30	0x3e3f963e	0.18709657
31	0xbd9fd8b0	-0.07805002
32	0x3dc0f83a	0.094223455
33	0xbe271466	-0.16316375
34	0xbe3cf1ff	-0.18451689
35	0xbe2f5a8a	-0.17124382
36	0xbd16dbec	-0.036830828
37	0x3e0c4e86	0.1370183
38	0xbdd83ceb	-0.10558494
39	0xbe344fa4	-0.17608505
40	0x3cf9586a	0.030437667
41	0xbd8c35c3	-0.06846192
42	0x3e7b4e20	0.24541521
43	0x3d5bb55e	0.053639762
44	0xbc8c8198	-0.017151639
45	0xbd5ffd70	-0.054685056
46	0xbe0eafa4	-0.13934189
47	0x3e08efaf	0.13372682
48	0x3e487435	0.1957558
49	0x3e4b56d0	0.19857335
50	0x3e21b507	0.15791713
51	0x3e299118	0.16559255
52	0xbdd5035b	-0.10401031
53	0x3e287cce	0.16453859
54	0xbe495345	-0.19660671
55	0x3cad92c8	0.021188155
56	0xbc8e34da	-0.017359186
57	0xbdd2b591	-0.10288537
58	0x3dc6ce4f	0.09707319
59	0x3e164c02	0.14677432
60	0xbe2d94ff	-0.16951369
61	0xbe4756e0	-0.19466734
62	0xbbf27586	-0.007399264
63	0xbcf18b0a	-0.029485244
64	0x3db1b17d	0.08676431
65	0x3e0b457d	0.13600726
66	0x3da847f4	0.08216849
67	0xbd50ed58	-0.0510076
68	0xbdd857f6	-0.10563652
69	0xbd869d8b	-0.06573018
70	0x3e196573	0.14980106
71	0x3e31ca58	0.17362344
72	0xbab54500	-0.0013829768
73	0x3d1d6514	0.038426474
74	0x3e4fa499	0.20277633
75	0xbba66540	-0.005077988
76	0x3e0ebd09	0.13939299
77	0x3cc77cb6	0.024351459
78	0xbd30e3e0	-0.04318607
79	0xbd57494c	-0.052560136
80	0xbe083943	-0.13303094
81	0x3e524a31	0.20536114
82	0x3c36f895	0.011167665
83	0xbd035bfc	-0.032070145
84	0x3df15799	0.11784286
85	0xbe030c8d	-0.12797756
86	0x3d37d9fc	0.04488562
87	0x3e2ed2c1	0.17072584
88	0x3e4da572	0.20082644
89	0x3e81ebe6	0.2537529
90	0x3c769754	0.015050728
91	0xbd474154	-0.048646286
92	0xbbc1fdd5	-0.0059201517
93	0x3db8d482	0.09024908
94	0xbca54559	-0.02017467
95	0x3d0ee8bd	0.034889925
96	0x3e36a49d	0.17836232
97	0xbd896865	-0.06709365
98	0x3d12d3ac	0.035846397
99	0x3e218db6	0.15776715
100	0x3e02d883	0.12777905
101	0xbe4b1aef	-0.19834493
102	0xbddda3ec	-0.10822281
103	0x3d52c9e4	0.05146207
104	0x3d8ab56e	0.06772886
105	0xbd47ad50	-0.048749268
106	0xbda610ac	-0.08108649
107	0x3d1c6e81	0.038191322
108	0xbe31dd84	-0.17369658
109	0xbe436df3	-0.19084911
110	0xbe13e89f	-0.14444207
111	0x3c52a46e	0.012856586
112	0x3e4ed38c	0.20197886
113	0x3db1f0c9	0.08688504
114	0x3e05701d	0.13031049
115	0xbe5d2066	-0.2159439
116	0x3e26a088	0.16272175
117	0x3e0a6a95	0.1351722
118	0x3e16eddb	0.14739172
119	0xbda835d0	-0.08213389
120	0x3de269d7	0.110553436
121	0x3ddc84b0	0.10767496
122	0xbd454408	-0.048160583
123	0xbe90b4c2	-0.28262907
124	0x3e5f67c5	0.21816929
125	0x3e158d85	0.14604767
126	0xbbddaf4d	-0.0067652822
127	0x3d26ead8	0.04075131
128	0xbdadf994	-0.08494869
129	0xbe27ab95	-0.16374047
130	0xbe16cdba	-0.14726916
131	0x3a18a700	0.0005823225
132	0xbe0992e0	-0.13434935
133	0xbe5be271	-0.214731
134	0x3e0de45b	0.13856642
135	0x3dd0442e	0.10169254
136	0xbdb88870	-0.090103984
137	0xbdcdda52	-0.10051407
138	0xbe1aa390	-0.15101457
139	0x3d392314	0.04519947
140	0x3dd1ddd6	0.1024739
141	0x3d0d953c	0.03456615
142	0x3e18dd03	0.1492806
143	0x3e21aa54	0.15787631
144	0xbe5bbebe	-0.21459481
145	0x3e2fa8f0	0.17154288
146	0xbe84f187	-0.2596552
147	0x3dd695da	0.10477801
148	0xbc3e1a8b	-0.011603008
149	0xbc98019a	-0.018555451
150	0xbd4d24c0	-0.050083876
151	0x3e044613	0.12917356
152	0x3d8cc128	0.06872779
153	0x3db1a696	0.08674352
154	0x3d061d61	0.03274286
155	0x3e11ed59	0.14250697
156	0xbe1c0fd6	-0.15240416
157	0xbc4f34f0	-0.012646899
158	0x3dade4c6	0.08490901
159	0x3dae1736	0.08500521
160	0x3de55a8a	0.111989096
161	0xbe0f5fd2	-0.14001396
162	0xbe5e6f03	-0.21722035
163	0xbe21ff9d	-0.15820165
164	0xbe329fca	-0.17443767
165	0x3d7f1dc5	0.06228425
166	0xbdf2cd4a	-0.11855562
167	0xbdd5e58a	-0.10444172
168	0x3e653d0a	0.22386566
169	0x3d948de1	0.07253624
170	0x3e12a010	0.14318871
171	0x3e1dcd2d	0.154103
172	0xbd2292cc	-0.039690778
173	0x3e52bcb3	0.20579796
174	0x3e0180e9	0.12646832
175	0xbe007dfd	-0.1254806
176	0xbe77f529	-0.24214615
177	0x3e6edc2f	0.23326181
178	0xbe5914d6	-0.21199355
179	0xbe55a4a2	-0.20863584
180	0xbe418682	-0.18898967
181	0xbe7156fb	-0.23568337
182	0xbd68f281	-0.056871895
183	0xbe256dbd	-0.16155143
184	0xbe086512	-0.13319805
185	0xbe0c31dd	-0.13690896
186	0xbcc56d06	-0.024099838
187	0xbce9eaf4	-0.028554417
188	0x3d145aa8	0.03621927
189	0xbe13de15	-0.14440186
190	0xbe6b8eed	-0.2300374
191	0x3df74a54	0.12074724
192	0x3e0bfb16	0.1367
193	0xbe43846f	-0.19093488
194	0xbd43b22e	-0.047777347
195	0x3e3257ff	0.1741638
196	0xbe0bd1f9	-0.13654317
197	0x3dcc0643	0.09962132
198	0x3de2aba2	0.110678926
199	0x3e343467	0.17598115
200	0xbe2d266a	-0.16909185
201	0x3dfd2a0a	0.12361534
202	0x3e2e53d9	0.17024173
203	0x3e4413c7	0.1914817
204	0xbdbb4430	-0.09143865
205	0x3daefbbd	0.08544109
206	0x3dd40fd6	0.10354583
207	0xbd8bfac2	-0.06834938
208	0x3c58255c	0.013192501
209	0xbdd08086	-0.10180764
210	0x3e54d80f	0.20785545
211	0x3dca9b8a	0.09892948
212	0x3e2bb284	0.16767317
213	0x3e1558bb	0.14584629
214	0x3dbddcf2	0.092706576
215	0xbe187197	-0.14887081
216	0xbdcf1694	-0.10111728
217	0xbd6481dd	-0.05578791
218	0x3e0ac814	0.13552886
219	0x3e2bd155	0.16779073
220	0xbcce4f17	-0.025184197
221	0x3d23d61c	0.039999112
222	0x3e04a1de	0.12952372
223	0xbe282f16	-0.16424212
224	0xbc9b3978	-0.018948302
225	0x3e26f49f	0.16304253
226	0x3e3f7026	0.18695125
227	0xbd7f3280	-0.06230402
228	0x3d0906e8	0.033453852
229	0xbcaff4ed	-0.021479094
230	0xbd0020a6	-0.031281136
231	0xbdfd688e	-0.12373458
232	0x3e31935b	0.17341368
233	0xbe48cf9c	-0.19610447
234	0x3e7f34fa	0.24922553
235	0x3d90f3af	0.07077729
236	0x3d57d554	0.05269368
237	0xba7c7200	-0.00096300244
238	0xbcb39237	-0.021920307
239	0xbc99d85f	-0.018779932
240	0xbd0253f8	-0.03181836
241	0x3d8a9a66	0.067677304
242	0xbe047023	-0.12933402
243	0x3da4ab35	0.08040468
244	0x3d21adda	0.03947244
245	0xbd18449d	-0.03717481
246	0xbe4981dd	-0.19678445
247	0xbe4f73f0	-0.2025907
248	0x38ca22ef	9.6386175e-05
249	0x3dea7752	0.1144854
250	0x3e5d72f1	0.21625878
251	0xbd97fb69	-0.074209996
252	0xbd41a2d2	-0.04727442
253	0x3e308205	0.17237099
254	0x3d0131f5	0.031541783
255	0xbe34a105	-0.17639549

sequential/dense_2/MatMul f4 [3, 64]
0	0x3e6f8060	0.23388815
1	0x3e1427ef	0.14468358
2	0xbe5cfe6e	-0.21581432
3	0x3e313f9f	0.17309426
4	0xbe39cf0c	-0.18145388
5	0xbdba00f2	-0.090822116
6	0xbea2d217	-0.3180091
7	0xbcf13927	-0.029446198
8	0xbca00fda	-0.019538809
9	0xbd27b4f3	-0.04094405
10	0xbee7812f	-0.45215747
11	0xbdef9cb7	-0.11699813
12	0xbea02ed1	-0.31285718
13	0x3dd5f431	0.104469664
14	0x3e4ac7ea	0.19802824
15	0x3e548ef8	0.20757663
16	0x3eb26e90	0.34849977
17	0xbe366801	-0.17813112
18	0x3c6d6d58	0.014491402
19	0xbdc6c52e	-0.09705578
20	0x3ccad124	0.02475793
21	0x3d8f9aa7	0.070119195
22	0xbe7866d5	-0.24257977
23	0x3d6fd4c4	0.05855252
24	0x3e9fced9	0.312125
25	0x3e002e98	0.12517774
26	0xbe145767	-0.14486466
27	0xbe926639	-0.28593615
28	0x3d8fe925	0.07026891
29	0x3c243ce7	0.010024286
30	0xbe28558a	-0.1643888
31	0x3d9c5d18	0.07634944
32	0x3dd0c41c	0.10193655
33	0xbd89da2d	-0.06731067
34	0x3c9744e0	0.01846546
35	0x3eb35b55	0.35030618
36	0xbe813dd2	-0.25242478
37	0xbe381682	-0.17977336
38	0xbdb3c2b2	-0.087773696
39	0xbdd18ca1	-0.10231901
40	0x3e9a6d08	0.3016131
41	0x3d898573	0.067149065
42	0x3ec2809e	0.37988752
43	0xbe08b9fb	-0.13352196
44	0x3d8ec6f0	0.06971538
45	0xbdb784d1	-0.089608796
46	0x3e3b46ac	0.18288678
47	0x3e968cce	0.294043
48	0x3deaa8f2	0.11458005
49	0x3d7d5e0d	0.061857272
50	0x3e8e22a1	0.27760795
51	0xbef9eeef	-0.48815104
52	0x3e34d418	0.17659032
53	0x3dd6d509	0.10489852
54	0x3d17f559	0.037099216
55	0xbe969c4c	-0.2941612
56	0x3e06124a	0.13092914
57	0xbd489e6e	-0.048979215
58	0xbea6c0d1	-0.32568982
59	0x3dbc0121	0.09179903
60	0x3e857b6c	0.26070726
61	0xbdcf7171	-0.10129059
62	0xbe96df19	-0.29467085
63	0xbeaef637	-0.34172222
64	0xbeb083ec	-0.34475648
65	0x3e959bfb	0.29220566
66	0x3e83a33b	0.25710472
67	0xbe7a0608	-0.24416363
68	0xbe086a30	-0.13321757
69	0xbdc35b1a	-0.095388606
70	0x3c71113f	0.014713584
71	0xbe37ee17	-0.17961918
72	0xbe51fd2f	-0.20506738
73	0xbd823b72	-0.063589945
74	0xbde42c18	-0.11141223
75	0x3e818006	0.25292987
76	0xbe1994d8	-0.14998186
77	0x3c157896	0.009122988
78	0x3e1f2674	0.15542012
79	0xbc7b1729	-0.015325346
80	0xbe276f30	-0.16351008
81	0xbe0bf76d	-0.13668604
82	0x3e6d43a2	0.23170331
83	0x3dad54f9	0.08463473
84	0x3d56a0b1	0.05239934
85	0x3e8c6f12	0.2742849
86	0x3e489e67	0.19591676
87	0xbe0fb6d9	-0.14034595
88	0xbe935703	-0.28777322
89	0x3c2fd5d1	0.01073213
90	0x3e916e29	0.28404358
91	0xbe8a5e5d	-0.27025118
92	0x3d2edf87	0.04269364
93	0x3e83849a	0.25687104
94	0xbe27d910	-0.16391397
95	0x3e9c21b2	0.30494457
96	0x3e74ab80	0.23893547
97	0xbe1a56b1	-0.15072133
98	0xbe615377	-0.22004496
99	0x3cb95abc	0.022626273
100	0xbe6fe1bc	-0.23425955
101	0xbc1fbdf2	-0.009749876
102	0x3dd2da80	0.10295582
103	0xbdd9068b	-0.10596951
104	0x3bf3e463	0.0074429973
105	0xbdd97be6	-0.10619335
106	0xbdcf6290	-0.10126221
107	0xbe06384b	-0.13107412
108	0x3e910713	0.2832571
109	0x3e8d6cf9	0.27622202
110	0xbdb8bcac	-0.09020361
111	0x3e9e5ac2	0.30928618
112	0xbeb0efb9	-0.34557894
113	0x3dad6227	0.08465987
114	0xbdcee6cd	-0.101026155
115	0x3d72d7bd	0.059287775
116	0xbe9de064	-0.3083526
117	0x3ddf8aa7	0.10915118
118	0xbe8f0f26	-0.27941245
119	0xbea069fb	-0.31330857
120	0xbe723648	-0.23653519
121	0xbdb7fd44	-0.089838535
122	0xbe69da10	-0.2283709
123	0xbe9b924c	-0.30385053
124	0x3ddc220a	0.1074868
125	0xbe9234fb	-0.28556046
126	0x3e44097b	0.19144242
127	0xbdf4a263	-0.11945035
128	0x3e873233	0.26405486
129	0xbea957d6	-0.33074826
130	0x3eaf147d	0.3419532
131	0xbe0a2888	-0.13492024
132	0xbd2317c8	-0.0398176
133	0x3c2c0135	0.010498335
134	0x3eb5c997	0.35505363
135	0xbe5a039d	-0.21290441
136	0xbe9c8272	-0.30568272
137	0x3dcfa23a	0.10138364
138	0x3ea7d7be	0.32781786
139	0xbe412672	-0.18862322
140	0xbe1d2e38	-0.15349662
141	0x3e35199d	0.17685552
142	0xbdba50f7	-0.09097474
143	0x3e743d2e	0.23851463
144	0xbe84b8e1	-0.259223
145	0xbec84e3f	-0.39122197
146	0xbe856749	-0.26055363
147	0x3e850793	0.2598234
148	0x3e785657	0.24251686
149	0xbe8954f6	-0.26822633
150	0x3d0fa562	0.03506983
151	0xbd6c6d2a	-0.057721294
152	0xbd5a466e	-0.053289823
153	0x3e285586	0.16438875
154	0x3ecf88d4	0.4053408
155	0x3e20ce85	0.15703781
156	0x3de42bc8	0.11141163
157	0xbe4cac72	-0.19987658
158	0x3e679436	0.22615132
159	0x3e3dd605	0.18538673
160	0xbdd60603	-0.104503654
161	0xbc8aa0d8	-0.0169224
162	0xbe741e11	-0.23839594
163	0xbdee871f	-0.11646866
164	0xbe2833f3	-0.16426067
165	0xbe6b6695	-0.2298835
166	0xbda7c530	-0.081919074
167	0xbecfc90f	-0.40583083
168	0xbee7e059	-0.4528835
169	0xbea90bc1	-0.3301678
170	0x3e0e2bf2	0.13883951
171	0x3e3b0c2a	0.18266359
172	0x3e9401b8	0.2890756
173	0x3e6fa795	0.23403771
174	0xbeeecc3c	-0.46640193
175	0x3dbc6e0d	0.09200678
176	0x3ebc20d9	0.3674381
177	0x3e2035b5	0.15645488
178	0xbefd3cc0	-0.4946041
179	0x3ee755dd	0.45182696
180	0x3e565431	0.20930554
181	0xbe0b9bdb	-0.13633673
182	0x3e553a2a	0.20822969
183	0x3ebf8e48	0.3741324
184	0x3ee47649	0.44621494
185	0xbe1d56bd	-0.1536512
186	0x3e4a4884	0.19754225
187	0x3d42bf6d	0.04754584
188	0x3e09777f	0.1342449
189	0x3ebf028e	0.37306637
190	0xbd52faca	-0.051508702
191	0xbd4af9f4	-0.04955478

sequential/dense_2/MatMul;sequential/dense_2/BiasAdd f4 [3]
0	0x3e321363	0.17390208
1	0x3e755df0	0.23961616
2	0xbef5ddd5	-0.48020807
